…
    embed_style: embed2
    num_heads: 4
    patch_size: 8
    stride: -1
replay_buffer_size: 1000
rl_camera: robot0_eye_in_hand
rl_image_size: 96
save_dir: exps/rl/run1
save_per_success: -1
seed: 1
state_stack: 1
stddev_max: 0.1
stddev_min: 0.1
stddev_step: 500000
task_name: PickPlaceCan
update_freq: 2
use_state: 0
use_wb: 0
========================================
rl_cameras: ['robot0_eye_in_hand']
(3, 96, 96)
encoder output dim:  15488
patch output dim:  128
============encoder weights=============
VitEncoder(
  (vit): MinVit(
    (patch_embed): PatchEmbed2(
      (embed): Sequential(
        (0): Conv2d(3, 128, kernel_size=(8, 8), stride=(4, 4))
        (1): Identity()
        (2): ReLU()
        (3): Conv2d(128, 128, kernel_size=(3, 3), stride=(2, 2))
      )
    )
    (net): Sequential(
      (0): TransformerLayer(
        (layer_norm1): LayerNorm((128,), eps=1e-05, elementwise_affine=True)
        (mha): MultiHeadAttention(
          (qkv_proj): Linear(in_features=128, out_features=384, bias=True)
          (out_proj): Linear(in_features=128, out_features=128, bias=True)
        )
        (layer_norm2): LayerNorm((128,), eps=1e-05, elementwise_affine=True)
        (linear1): Linear(in_features=128, out_features=512, bias=True)
        (linear2): Linear(in_features=512, out_features=128, bias=True)
        (dropout): Dropout(p=0, inplace=False)
      )
    )
    (norm): LayerNorm((128,), eps=1e-05, elementwise_affine=True)
  )
)
| Module                         |   #Params |      % |
|--------------------------------+-----------+--------|
| vit.pos_embed                  |    15,488 |   4.01 |
| vit.patch_embed.embed.0.weight |    24,576 |   6.36 |
| vit.patch_embed.embed.0.bias   |       128 |   0.03 |
| vit.patch_embed.embed.3.weight |   147,456 |  38.17 |
| vit.patch_embed.embed.3.bias   |       128 |   0.03 |
…
| vit.net.0.layer_norm2.bias     |       128 |   0.03 |
| vit.net.0.linear1.weight       |    65,536 |  16.96 |
| vit.net.0.linear1.bias         |       512 |   0.13 |
| vit.net.0.linear2.weight       |    65,536 |  16.96 |
| vit.net.0.linear2.bias         |       128 |   0.03 |
| vit.norm.weight                |       128 |   0.03 |
| vit.norm.bias                  |       128 |   0.03 |
| Total                          |   386,304 | 100.00 |
=============critic weights=============
Critic(
  (q1): SpatialEmbQNet(
    weight: nn.Parameter (torch.Size([1, 128, 1024]))
    (input_proj): Sequential(
      (0): Linear(in_features=155, out_features=1024, bias=True)
      (1): LayerNorm((1024,), eps=1e-05, elementwise_affine=True)
      (2): ReLU(inplace=True)
    )
    (q): Sequential(
      (0): Linear(in_features=1058, out_features=1024, bias=True)
      (1): LayerNorm((1024,), eps=1e-05, elementwise_affine=True)
      (2): ReLU(inplace=True)
      (3): Linear(in_features=1024, out_features=1024, bias=True)
      (4): LayerNorm((1024,), eps=1e-05, elementwise_affine=True)
      (5): ReLU(inplace=True)
      (6): Linear(in_features=1024, out_features=1, bias=True)
    )
  )
  (q2): SpatialEmbQNet(
    weight: nn.Parameter (torch.Size([1, 128, 1024]))
    (input_proj): Sequential(
      (0): Linear(in_features=155, out_features=1024, bias=True)
      (1): LayerNorm((1024,), eps=1e-05, elementwise_affine=True)
      (2): ReLU(inplace=True)
    )
    (q): Sequential(
      (0): Linear(in_features=1058, out_features=1024, bias=True)
      (1): LayerNorm((1024,), eps=1e-05, elementwise_affine=True)
      (2): ReLU(inplace=True)
      (3): Linear(in_features=1024, out_features=1024, bias=True)
      (4): LayerNorm((1024,), eps=1e-05, elementwise_affine=True)
      (5): ReLU(inplace=True)
      (6): Linear(in_features=1024, out_features=1, bias=True)
    )
  )
)
| Module                 |   #Params |      % |
|------------------------+-----------+--------|
| q1.weight              |   131,072 |   2.69 |
| q1.input_proj.0.weight |   158,720 |   3.26 |
| q1.input_proj.0.bias   |     1,024 |   0.02 |
| q1.input_proj.1.weight |     1,024 |   0.02 |
| q1.input_proj.1.bias   |     1,024 |   0.02 |
| q1.q.0.weight          | 1,083,392 |  22.27 |
…
| q2.q.0.weight          | 1,083,392 |  22.27 |
| q2.q.0.bias            |     1,024 |   0.02 |
| q2.q.1.weight          |     1,024 |   0.02 |
| q2.q.1.bias            |     1,024 |   0.02 |
| q2.q.3.weight          | 1,048,576 |  21.56 |
| q2.q.3.bias            |     1,024 |   0.02 |
| q2.q.4.weight          |     1,024 |   0.02 |
| q2.q.4.bias            |     1,024 |   0.02 |
| q2.q.6.weight          |     1,024 |   0.02 |
| q2.q.6.bias            |         1 |   0.00 |
| Total                  | 4,864,002 | 100.00 |
=============actor weights==============
Actor(
  (compress): Sequential(
    (0): Linear(in_features=15488, out_features=128, bias=True)
    (1): LayerNorm((128,), eps=1e-05, elementwise_affine=True)
    (2): Dropout(p=0.5, inplace=False)
    (3): ReLU()
  )
  (policy): Sequential(
    (0): Linear(in_features=155, out_features=1024, bias=True)
    (1): LayerNorm((1024,), eps=1e-05, elementwise_affine=True)
    (2): Dropout(p=0.5, inplace=False)
    (3): ReLU()
    (4): Linear(in_features=1024, out_features=1024, bias=True)
    (5): LayerNorm((1024,), eps=1e-05, elementwise_affine=True)
    (6): Dropout(p=0.5, inplace=False)
    (7): ReLU()
    (8): Linear(in_features=1024, out_features=7, bias=True)
    (9): Tanh()
  )
)
| Module            |   #Params |      % |
|-------------------+-----------+--------|
| compress.0.weight | 1,982,464 |  61.89 |
| compress.0.bias   |       128 |   0.00 |
| compress.1.weight |       128 |   0.00 |
| compress.1.bias   |       128 |   0.00 |
| policy.0.weight   |   158,720 |   4.95 |
| policy.0.bias     |     1,024 |   0.03 |
…
