…
    downsample: default
    feat_mode: flat
    norm_layer: gnn
    out_norm: 0
    shallow: 0
    stem: patch
  use_prop: 0
  vit:
    depth: 3
    embed_dim: 128
    feat_mode: flat
    norm_proj: 1
    norm_weight: 1
    num_heads: 4
    patch_size: 8
    stride: -1
    use_coord: 0
rl_image_size: 96
robot: Sawyer
save_dir: exps/bc/metaworld/pathAssembly_num_data3_num_epoch2_seed1
seed: 1
task_name: Assembly
use_wb: 1
weight_decay: 0
norm layer: gnn
=============policy weights=============
Policy(
  (encoder): ResNetEncoder(
    (nets): ResNet(
      (init_downsample): Sequential(
        (0): Conv2d(3, 64, kernel_size=(4, 4), stride=(4, 4), bias=False)
        (1): GroupNorm(64, 64, eps=1e-05, affine=True)
        (2): ReLU(inplace=True)
      )
      (layer1): Sequential(
        (0): BasicBlock(
          (conv1): Conv2d(64, 64, kernel_size=(3, 3), stride=(1, 1), padding=(1, 1), bias=False)
          (bn1): GroupNorm(64, 64, eps=1e-05, affine=True)
          (relu): ReLU()
          (conv2): Conv2d(64, 64, kernel_size=(3, 3), stride=(1, 1), padding=(1, 1), bias=False)
          (bn2): GroupNorm(64, 64, eps=1e-05, affine=True)
        )
        (1): BasicBlock(
          (conv1): Conv2d(64, 64, kernel_size=(3, 3), stride=(1, 1), padding=(1, 1), bias=False)
          (bn1): GroupNorm(64, 64, eps=1e-05, affine=True)
          (relu): ReLU()
          (conv2): Conv2d(64, 64, kernel_size=(3, 3), stride=(1, 1), padding=(1, 1), bias=False)
          (bn2): GroupNorm(64, 64, eps=1e-05, affine=True)
        )
      )
      (layer2): Sequential(
        (0): BasicBlock(
          (conv1): Conv2d(64, 128, kernel_size=(3, 3), stride=(2, 2), padding=(1, 1), bias=False)
          (bn1): GroupNorm(128, 128, eps=1e-05, affine=True)
          (relu): ReLU()
          (conv2): Conv2d(128, 128, kernel_size=(3, 3), stride=(1, 1), padding=(1, 1), bias=False)
          (bn2): GroupNorm(128, 128, eps=1e-05, affine=True)
          (downsample): Sequential(
            (0): Conv2d(64, 128, kernel_size=(1, 1), stride=(2, 2), bias=False)
            (1): GroupNorm(128, 128, eps=1e-05, affine=True)
          )
        )
        (1): BasicBlock(
          (conv1): Conv2d(128, 128, kernel_size=(3, 3), stride=(1, 1), padding=(1, 1), bias=False)
          (bn1): GroupNorm(128, 128, eps=1e-05, affine=True)
          (relu): ReLU()
          (conv2): Conv2d(128, 128, kernel_size=(3, 3), stride=(1, 1), padding=(1, 1), bias=False)
          (bn2): GroupNorm(128, 128, eps=1e-05, affine=True)
        )
      )
      (layer3): Sequential(
        (0): BasicBlock(
          (conv1): Conv2d(128, 256, kernel_size=(3, 3), stride=(2, 2), padding=(1, 1), bias=False)
          (bn1): GroupNorm(256, 256, eps=1e-05, affine=True)
          (relu): ReLU()
          (conv2): Conv2d(256, 256, kernel_size=(3, 3), stride=(1, 1), padding=(1, 1), bias=False)
          (bn2): GroupNorm(256, 256, eps=1e-05, affine=True)
          (downsample): Sequential(
            (0): Conv2d(128, 256, kernel_size=(1, 1), stride=(2, 2), bias=False)
            (1): GroupNorm(256, 256, eps=1e-05, affine=True)
          )
        )
        (1): BasicBlock(
          (conv1): Conv2d(256, 256, kernel_size=(3, 3), stride=(1, 1), padding=(1, 1), bias=False)
          (bn1): GroupNorm(256, 256, eps=1e-05, affine=True)
          (relu): ReLU()
          (conv2): Conv2d(256, 256, kernel_size=(3, 3), stride=(1, 1), padding=(1, 1), bias=False)
          (bn2): GroupNorm(256, 256, eps=1e-05, affine=True)
        )
      )
      (layer4): Sequential(
        (0): BasicBlock(
          (conv1): Conv2d(256, 512, kernel_size=(3, 3), stride=(2, 2), padding=(1, 1), bias=False)
          (bn1): GroupNorm(512, 512, eps=1e-05, affine=True)
          (relu): ReLU()
          (conv2): Conv2d(512, 512, kernel_size=(3, 3), stride=(1, 1), padding=(1, 1), bias=False)
          (bn2): GroupNorm(512, 512, eps=1e-05, affine=True)
          (downsample): Sequential(
            (0): Conv2d(256, 512, kernel_size=(1, 1), stride=(2, 2), bias=False)
            (1): GroupNorm(512, 512, eps=1e-05, affine=True)
          )
        )
        (1): BasicBlock(
          (conv1): Conv2d(512, 512, kernel_size=(3, 3), stride=(1, 1), padding=(1, 1), bias=False)
          (bn1): GroupNorm(512, 512, eps=1e-05, affine=True)
          (relu): ReLU()
          (conv2): Conv2d(512, 512, kernel_size=(3, 3), stride=(1, 1), padding=(1, 1), bias=False)
          (bn2): GroupNorm(512, 512, eps=1e-05, affine=True)
        )
      )
    )
  )
  (policy): Sequential(
    (0): Linear(in_features=4608, out_features=1024, bias=True)
    (1): Dropout(p=0, inplace=False)
    (2): LayerNorm((1024,), eps=1e-05, elementwise_affine=True)
    (3): ReLU(inplace=True)
    (4): Linear(in_features=1024, out_features=1024, bias=True)
    (5): Dropout(p=0, inplace=False)
    (6): LayerNorm((1024,), eps=1e-05, elementwise_affine=True)
    (7): ReLU(inplace=True)
    (8): Linear(in_features=1024, out_features=4, bias=True)
  )
)
| Module                                    |    #Params |      % |
|-------------------------------------------+------------+--------|
| encoder.nets.init_downsample.0.weight     |      3,072 |   0.02 |
| encoder.nets.init_downsample.1.weight     |         64 |   0.00 |
| encoder.nets.init_downsample.1.bias       |         64 |   0.00 |
| encoder.nets.layer1.0.conv1.weight        |     36,864 |   0.22 |
…
