…
========================================
norm layer: gnn
===============Env Config===============
{'action_repeat': 2,
 'camera_names': ['corner2'],
 'device': 'cuda',
 'env_name': 'StickPull',
 'episode_length': 100,
 'frame_stack': 1,
 'obs_stack': 1,
 'reward_shaping': False,
 'rl_camera': 'corner2',
 'rl_image_size': 96,
 'robots': 'Sawyer',
 'use_state': 0}
========================================
encoder output dim:  39200
patch output dim:  32
============encoder weights=============
DrQEncoder(
  (transform): Resize(size=84, interpolation=bicubic, max_size=None, antialias=True)
  (convnet): Sequential(
    (0): Conv2d(3, 32, kernel_size=(3, 3), stride=(2, 2))
    (1): ReLU()
    (2): Conv2d(32, 32, kernel_size=(3, 3), stride=(1, 1))
    (3): ReLU()
    (4): Conv2d(32, 32, kernel_size=(3, 3), stride=(1, 1))
    (5): ReLU()
    (6): Conv2d(32, 32, kernel_size=(3, 3), stride=(1, 1))
    (7): ReLU()
  )
)
| Module           |   #Params |      % |
|------------------+-----------+--------|
| convnet.0.weight |       864 |   3.02 |
| convnet.0.bias   |        32 |   0.11 |
| convnet.2.weight |     9,216 |  32.18 |
| convnet.2.bias   |        32 |   0.11 |
| convnet.4.weight |     9,216 |  32.18 |
| convnet.4.bias   |        32 |   0.11 |
| convnet.6.weight |     9,216 |  32.18 |
| convnet.6.bias   |        32 |   0.11 |
| Total            |    28,640 | 100.00 |
=============critic weights=============
Critic(
  (q1): _QNet(
    (obs_proj): Sequential(
      (0): Linear(in_features=39200, out_features=64, bias=True)
      (1): Dropout(p=0, inplace=False)
      (2): LayerNorm((64,), eps=1e-05, elementwise_affine=True)
      (3): ReLU()
    )
    (q): Sequential(
      (0): Linear(in_features=68, out_features=1024, bias=True)
      (1): Dropout(p=0, inplace=False)
      (2): LayerNorm((1024,), eps=1e-05, elementwise_affine=True)
      (3): ReLU(inplace=True)
      (4): Linear(in_features=1024, out_features=1024, bias=True)
      (5): Dropout(p=0, inplace=False)
      (6): LayerNorm((1024,), eps=1e-05, elementwise_affine=True)
      (7): ReLU(inplace=True)
      (8): Linear(in_features=1024, out_features=1, bias=True)
    )
  )
  (q2): _QNet(
    (obs_proj): Sequential(
      (0): Linear(in_features=39200, out_features=64, bias=True)
      (1): Dropout(p=0, inplace=False)
      (2): LayerNorm((64,), eps=1e-05, elementwise_affine=True)
      (3): ReLU()
    )
    (q): Sequential(
      (0): Linear(in_features=68, out_features=1024, bias=True)
      (1): Dropout(p=0, inplace=False)
      (2): LayerNorm((1024,), eps=1e-05, elementwise_affine=True)
      (3): ReLU(inplace=True)
      (4): Linear(in_features=1024, out_features=1024, bias=True)
      (5): Dropout(p=0, inplace=False)
      (6): LayerNorm((1024,), eps=1e-05, elementwise_affine=True)
      (7): ReLU(inplace=True)
      (8): Linear(in_features=1024, out_features=1, bias=True)
    )
  )
)
| Module               |   #Params |      % |
|----------------------+-----------+--------|
| q1.obs_proj.0.weight | 2,508,800 |  34.51 |
| q1.obs_proj.0.bias   |        64 |   0.00 |
| q1.obs_proj.2.weight |        64 |   0.00 |
| q1.obs_proj.2.bias   |        64 |   0.00 |
| q1.q.0.weight        |    69,632 |   0.96 |
| q1.q.0.bias          |     1,024 |   0.01 |
…
| q2.obs_proj.2.bias   |        64 |   0.00 |
| q2.q.0.weight        |    69,632 |   0.96 |
| q2.q.0.bias          |     1,024 |   0.01 |
| q2.q.2.weight        |     1,024 |   0.01 |
| q2.q.2.bias          |     1,024 |   0.01 |
| q2.q.4.weight        | 1,048,576 |  14.43 |
| q2.q.4.bias          |     1,024 |   0.01 |
| q2.q.6.weight        |     1,024 |   0.01 |
| q2.q.6.bias          |     1,024 |   0.01 |
| q2.q.8.weight        |     1,024 |   0.01 |
| q2.q.8.bias          |         1 |   0.00 |
| Total                | 7,268,738 | 100.00 |
=============actor weights==============
Actor(
  (compress): Sequential(
    (0): Linear(in_features=39200, out_features=64, bias=True)
    (1): LayerNorm((64,), eps=1e-05, elementwise_affine=True)
    (2): Dropout(p=0.0, inplace=False)
    (3): ReLU()
  )
  (policy): Sequential(
    (0): Linear(in_features=64, out_features=1024, bias=True)
    (1): LayerNorm((1024,), eps=1e-05, elementwise_affine=True)
    (2): Dropout(p=0.0, inplace=False)
    (3): ReLU()
    (4): Linear(in_features=1024, out_features=1024, bias=True)
    (5): LayerNorm((1024,), eps=1e-05, elementwise_affine=True)
    (6): Dropout(p=0.0, inplace=False)
    (7): ReLU()
    (8): Linear(in_features=1024, out_features=4, bias=True)
    (9): Tanh()
  )
)
| Module            |   #Params |      % |
|-------------------+-----------+--------|
| compress.0.weight | 2,508,800 |  69.05 |
| compress.0.bias   |        64 |   0.00 |
| compress.1.weight |        64 |   0.00 |
| compress.1.bias   |        64 |   0.00 |
| policy.0.weight   |    65,536 |   1.80 |
| policy.0.bias     |     1,024 |   0.03 |
…
